isotopic state/cirq6+11runs/run_6to5/50/weights.npy (npy, 720 bytes, 1 tensors)

array f8 [74]
-0.010664048089373677 0.8524919574244423 1.633709277386958 1.5644836435242324 3.1357934693203235 1.2838905759197934 0.0005170461116460814 -0.030689651180901042
0.0018732199472785557 -0.03580869612776298 1.5568707887986672 1.447520258608749 1.7028715503982146 3.1435249529750258 4.570009507452004 3.2607797883264897
-0.0190328716072692 3.2730064719223715 -0.08607056811251161 3.1448890763979986 -0.045527825156726556 0.047235849753043964 0.8049551140169874 0.7599624493704789
-1.66156041852812 -0.037789962412369635 -2.3520804354394613 -1.67650900077021 4.633523774849407 0.6959033239324172 -0.021901092813097447 5.57079617607513
0.2420973129202756 3.404548257270565 2.9758354838097905 1.4911223154069067 -0.2577074913322431 3.1551799362656068 3.1431082766899703 1.17213740128441
1.6580769977905097 1.0147048033788224 1.8084219220035724 0.30238212840765955 1.5396780987269707 2.8841627087996877 2.465010084297351 0.3255573383403629
2.088091298409811 1.2252162429488462 0.42722230329537 1.6384346605933875 1.109817155443571 3.0257637164286524 0.0 0.0
0.0 0.0 0.0 0.0 0.0 0.0 0.0 0.0
0.0 0.0 0.0 0.0 0.0 0.0 0.0 0.0
0.0 0.0
00000000: 2c6e 4b4e 08d7 85bf 4eb6 a736 9d47 eb3f
00000010: cac7 d856 ac23 fa3f 1904 4100 2008 f93f
00000020: eaed ede2 1a16 0940 697d 33d8 d08a f43f
00000030: 40f5 ec11 4cf1 403f 1c29 97a0 1b6d 9fbf
00000040: bc8a 5a9a dab0 5e3f 16f2 8f75 8455 a2bf
00000050: d8ce 1f58 f1e8 f83f 465a b000 0b29 f73f
00000060: 82fc 233d f63e fb3f 5b80 1969 f025 0940
00000070: 65a9 8392 b047 1240 848f b2b6 1316 0a40
00000080: 04a4 6864 5a7d 93bf ff05 6404 1e2f 0a40
00000090: 23fe 3083 b808 b6bf 996a a59a bb28 0940
000000a0: da58 3650 6c4f a7bf 31b4 c61b 4c2f a83f
000000b0: df6d 2e3a 31c2 e93f 147f 47c5 9c51 e83f
000000c0: 6780 9e60 c095 fabf 9e3c 5bb9 3459 a3bf
000000d0: 0031 1e8c 0fd1 02c0 801f 1c1a fbd2 fabf
000000e0: dfdd d874 ba88 1240 27f5 2e0c d744 e63f
000000f0: 1402 8475 3d6d 96bf bbb2 f3ca 7e48 1640
00000100: 7c95 b874 0bfd ce3f 060c f5cb 833c 0b40
00000110: 44ea 89d5 82ce 0740 a822 b012 a3db f73f
00000120: 2d32 cd8f 477e d0bf 960c 7afa ce3d 0940
00000130: dc5c c1f3 1525 0940 a2f5 ce25 13c1 f23f
00000140: 6229 fcbe 7b87 fa3f cdb2 991a 3b3c f03f
00000150: 35ff 45d3 4bef fc3f 24f8 1992 3a5a d33f
00000160: 9365 8680 85a2 f83f 7519 f5e5 c312 0740
00000170: 48f0 0235 57b8 0340 3342 4972 eed5 d43f
00000180: c8db ed35 69b4 0040 7fe4 df58 7c9a f33f
00000190: 45a0 3137 9c57 db3f 751a 3e43 0737 fa3f
000001a0: dab7 32a2 cfc1 f13f 37e0 7b9b c334 0840
000001b0: 0000 0000 0000 0000 0000 0000 0000 0000
000001c0: 0000 0000 0000 0000 0000 0000 0000 0000
000001d0: 0000 0000 0000 0000 0000 0000 0000 0000
000001e0: 0000 0000 0000 0000 0000 0000 0000 0000
000001f0: 0000 0000 0000 0000 0000 0000 0000 0000
00000200: 0000 0000 0000 0000 0000 0000 0000 0000
00000210: 0000 0000 0000 0000 0000 0000 0000 0000
00000220: 0000 0000 0000 0000 0000 0000 0000 0000
00000230: 0000 0000 0000 0000 0000 0000 0000 0000
00000240: 0000 0000 0000 0000 0000 0000 0000 0000
