runs/run_7to5/100/weights.npy (npy, 704 bytes, 1 tensors)

array f8 [72]
3.1183054220151982 -0.7836373333141159 1.593267262054981 0.04769838162417292 1.6770960800744448 3.126118255269304 3.1410217302557193 -0.0008143315077599111
0.0005602496179265832 0.0003358182663055879 -0.0004349366551055539 3.2191895138041486 -2.354880576516417 -1.6118159508419796 1.3585256980002811 1.3917376831146508
-1.166008535192014 0.45453908251035396 3.1537503227129102 0.07658006440223578 3.1236479357328295 2.80144453901339 -0.006838047036905785 0.48845325670734546
4.682071453338327 0.03823819182893848 1.553560475490644 0.5659881416950717 1.8976884950066988 0.5948642474345459 3.1425648774042414 3.247166283536416
3.139127430295769 3.1410045458477986 -0.13023727847470334 1.7342867908782085 2.523038340657285 1.5494092263046875 1.7809997077626596 1.4331040781793274
2.2134777044109963 0.1439615476375118 0.0862246014634866 -0.08907461622298792 0.015985526866480346 0.7313341382470485 0.3173053492905536 0.8732798287880521
2.1847054311995677 1.5630846564346514 0.7258582283820963 -0.999862508034049 0.8387355647746203 2.9425871721045107 0.09192969516964154 -0.03029201791011501
0.00971251060712106 2.2906193927190546 0.5133440736967793 1.1920944291500273 2.333779000443889 2.428928335051243 1.7497092225066315 2.1507791011858792
2.647897400412366 2.437875621434705 0.7195757400025581 0.10084589022858714 0.9910249783382391 0.8411327689961466 0.6628221513926962 2.9622382314744673
00000000: 42f5 f31c 4af2 0840 eb47 d099 8e13 e9bf
00000010: 8704 05d0 057e f93f 1cc0 4b1a ec6b a83f
00000020: 6db6 02b3 62d5 fa3f 5f7b ae49 4a02 0940
00000030: 08ca 3b00 d020 0940 b8bc d298 1baf 4abf
00000040: fc04 afe4 b65b 423f d460 9f78 1802 363f
00000050: 4872 a2b5 0681 3cbf d651 8b6e e6c0 0940
00000060: 35fd b0a0 cbd6 02c0 6199 c085 ffc9 f9bf
00000070: 0dfd 3a71 85bc f53f 6b69 99bb 8e44 f63f
00000080: e41a d890 f8a7 f2bf 35b1 8817 2b17 dd3f
00000090: 4269 fe72 e13a 0940 da17 2248 c09a b33f
000000a0: f785 0121 3bfd 0840 63f6 24c1 5b69 0640
000000b0: d1b6 4546 3602 7cbf 09b2 cb72 d142 df3f
000000c0: 447e 66f0 70ba 1240 1c18 bace f493 a33f
000000d0: cb72 a93a 62db f83f f921 d029 931c e23f
000000e0: a6c9 809c ee5c fe3f 1750 09bf 2009 e33f
000000f0: 6313 f00d f923 0940 c1b3 0351 32fa 0940
00000100: 58c6 98d7 ee1c 0940 6e07 c8fd c620 0940
00000110: 2c6b e279 9dab c0bf a14e 8b81 a3bf fb3f
00000120: cc6a bdb9 2e2f 0440 b796 3154 61ca f83f
00000130: 3c6b b08c f97e fc3f 05b6 b88a feed f63f
00000140: 8cf6 76cc 33b5 0140 5009 7efd 546d c23f
00000150: 7c74 65c3 d012 b63f 25dc 9413 98cd b6bf
00000160: 7c48 678c 825e 903f 7505 c7d9 1667 e73f
00000170: 491f 8318 bb4e d43f 54d6 1c8a e8f1 eb3f
00000180: 702a 53d7 467a 0140 7442 840e 6502 f93f
00000190: 13e0 0d09 3b3a e73f c116 90a8 dffe efbf
000001a0: e55e 96f7 ebd6 ea3f 428b ae24 6b8a 0740
000001b0: 8fec 485a b488 b73f 96e1 03e9 de04 9fbf
000001c0: 336b 5b1b 27e4 833f 677e 9a42 3053 0240
000001d0: 47f0 038d 506d e03f 2b17 af9b d112 f33f
000001e0: 0efc 1753 94ab 0240 89fb 9afa 716e 0340
000001f0: 22cf 0219 cffe fb3f e81b 64ac cb34 0140
00000200: ea79 0fd5 e42e 0540 cd38 0eef c480 0340
00000210: a3ca c9b3 c306 e73f f0c0 7748 09d1 b93f
00000220: 476b ef03 7ab6 ef3f ffd5 cd44 8fea ea3f
00000230: c278 e9cc d635 e53f 5426 39f5 a9b2 0740
