isotopic state/cirq11partruns/run_4to1/50/weights.npy (npy, 416 bytes, 1 tensors)

array f8 [36]
000000 a7 11 35 68 a7 3e d4 3f 35 d0 5b ff 6d fa e2 bf
       0.31632409264082145 -0.5930700290177869
000010 10 59 42 c0 16 f8 4a bf 03 1c 44 07 25 0e 08 40
       -0.0008230315293243102 3.0069065635357233
000020 41 81 38 07 9a fa f8 3f 0f 41 ab 81 1c d6 07 40
       1.5611820489940131 2.979546559370767
000030 fc 35 f3 17 94 1e 84 bf f8 a5 2a bb 40 68 fe 3f
       -0.009823948841950696 1.9004523574061505
000040 cd a3 bf df 42 12 06 40 5d d7 08 9f 84 1b f9 3f
       2.7589166145666923 1.5692182743345804
000050 dc ae c5 ff 18 75 f9 3f 81 fc d6 70 be 0b cc bf
       1.5910882941342868 -0.2191083956695117
000060 b4 cb 62 4d 09 92 b7 3f 35 83 33 1c 89 ab f7 3f
       0.09207208766274172 1.479378805314082
000070 19 42 b6 3b 09 1d e4 3f 39 7a 50 c8 72 2c 13 40
       0.6285444418190905 4.793406610404923
000080 2c 16 aa 18 f1 30 9e bf 75 6a bf 65 34 75 fc 3f
       -0.029483573084254797 1.7786144232292405
000090 f5 dc 8e 78 fb 50 0c 40 4e f8 0b 8a 64 9e 09 40
       3.5395421427343714 3.2023402008917747
0000a0 34 78 7e 73 da 63 6c 3f ff 95 e3 d6 2b a4 f2 3f
       0.003465582525634248 1.1650808710195404
0000b0 23 f5 3d 3a 23 71 c9 3f 17 2d 91 73 a3 3f e7 3f
       0.1987651857743141 0.7265183694047747
0000c0 d1 4b a9 e8 e9 52 ab 3f df aa 7f 68 fa 53 f4 3f
       0.053366956378020476 1.2705024797420987
0000d0 91 80 f6 8b 46 06 c3 bf 43 8c fc 56 4f bc f3 3f
       -0.1486290152943224 1.2334741018210174
0000e0 ac 22 1d 2b ba 8b 09 40 1e 8b 3a d0 52 da fb 3f
       3.1932261818186216 1.7408016332562464
0000f0 8c 9a 9b 81 55 c5 07 40 64 7b 4a 06 63 0f 05 40
       2.9713544965373497 2.6325130931358434
000100 e1 e6 1f e8 9b 64 fd 3f 0c e9 bb d2 ea fd 06 40
       1.8370627467506255 2.873983045920914
000110 ef 8f ce f3 d0 b2 08 40 6e c8 0f d0 b7 55 fa 3f
       3.0873126075184625 1.6459272506149563
