runs/run_7to1/10/weights.npy (npy, 632 bytes, 1 tensors)

array f8 [63]
00000000: e63f 23d1 f0dd 0840 e53d 5ae1 9e6e 02c0
00000010: 4f37 c052 78a7 f73f 7b3f 023a 4036 e2bf
00000020: 9212 5ae2 f23d f93f 161a 07fd c36e f83f
00000030: 8778 ca61 8a70 0940 3ffe 73bf f5b8 f83f
00000040: 2e28 5230 1be5 76bf 8f00 ea37 acf7 0340
00000050: c0cc 3779 2dba 0340 021a 6aa1 0795 f83f
00000060: 4158 f544 97d9 f9bf 4580 5fb8 2ada e3bf
00000070: 89ad 9393 a844 0940 7030 7e74 2d6a f5bf
00000080: c364 7ceb 23b8 e8bf c337 68ec c652 c73f
00000090: fc4e 5a1d b76d fe3f 4058 fd7c 4cb0 0340
000000a0: e8fe 2c39 6bf1 0140 6b30 732f 023f 0540
000000b0: aad4 6568 1ec2 ddbf 1ef5 e401 63b5 a1bf
000000c0: 10c9 aeaa e354 0340 0cfa 4a29 2577 0240
000000d0: f746 c379 8707 da3f f136 2cab b09e b63f
000000e0: 9e97 1a76 ecd0 0540 61c1 8722 1bef 0840
000000f0: 949e f120 df36 1740 07a7 c46d c3c3 d23f
00000100: da3d a34c 77a9 f23f 4c28 c836 2856 fd3f
00000110: af26 6611 964f 0040 af70 8a9d bf6a 94bf
00000120: 6485 08a2 0fc3 0c40 3b79 f341 b35e f73f
00000130: a7f9 d89a 603d f13f 25cd ba6d 8cfc 0640
00000140: ea78 8ca2 7a7e 0940 c457 c8c8 165e 9c3f
00000150: ff81 a7e7 ce02 bcbf 5584 7301 98e1 0540
00000160: 273b 644c e404 0040 ffb4 31d3 9aa9 ffbf
00000170: 6317 141f 516e fabf 0ce5 b9d5 d85e 0d40
00000180: bdfc dd4d 15a2 0f40 5395 966a 5e22 fa3f
00000190: 764d 30eb 0c97 0340 64b7 0811 6def ecbf
000001a0: 4589 39c7 fbec 0340 bae6 7f41 444f 1140
000001b0: 7958 5b92 0b47 fd3f 03c6 36d6 a4fe 0740
000001c0: 7ca8 9e41 4232 97bf 9818 ce16 c6ef f93f
000001d0: bd44 a53b 1662 f93f 5555 bd0b 6fc9 f33f
000001e0: 3f6e 61fe 88ff 1240 5980 5e74 5f89 0340
000001f0: 9d3b 5b19 cffe fb3f
3.1083694781191182 -2.304013977591 1.4783862335638849 -0.5691224225028998 1.5776242105359057 1.527042377843491 3.179951442710322 1.545156238425889
-0.005589586454457103 2.4959339493071364 2.465907046332717 1.5363842301609343 -1.6156227773367535 -0.6203816987072136 3.158524659103652 -1.3384222555642076
-0.7724780654272297 0.18221365493121597 1.9017859598724831 2.4610833897413897 2.242880293546353 2.6557658869769987 -0.4649730700978788 -0.034586996060605765
2.4164498648252746 2.308176348305329 0.4067095460023746 0.08835891894360849 2.7270135142197907 3.116750974433828 5.803585543391495 0.2931984493212529
1.166373538366193 1.833534444801006 2.0388604506777805 -0.01993846320202469 3.5952446612215443 1.4606201721395127 1.0774847077114857 2.8733147213585135
3.1867573451155424 0.027702671055599884 -0.10941785007117487 2.735153209054753 2.0023885696495145 -1.9789074182293118 -1.6519328321459958 3.671312017188603
3.9541421969766746 1.6333908237077892 2.448755109225824 -0.9042268116661316 2.490714603846899 4.327408812934374 1.8298450200141174 2.999337838694147
-0.022652659659492688 1.6210385218451275 1.5864469842820619 1.236678167207477 4.749546026894278 2.442076596387818 1.7497092237933665
