cirq5runs/run_6to3/100/weights.npy (npy, 512 bytes, 1 tensors)

array f8 [48]
00000000: 6e79 8d7c fa90 f83f 153e 1411 c362 f1bf
00000010: b5ee 793f 8887 f93f 8e03 0c30 138d f03f
00000020: c0d5 9363 fd76 f93f 0c86 cce3 4b18 0940
00000030: 6c4a f543 ba13 fa3f 71f4 e4af 04e5 f63f
00000040: 905b e9dc 5065 ea3f 7b18 3406 4e17 c5bf
00000050: 75b7 e1d3 ce2f 05c0 f420 5d0f ec1f 0940
00000060: 7761 50e4 78a5 bb3f 61d8 875c ecbf f8bf
00000070: 601f a39e 1f02 0a40 77a0 5598 1e51 0e40
00000080: 2a78 583b d0f8 47bf e724 4daf 7bdc 0b40
00000090: 00ff d415 1b4d 0840 494e d6c9 d77c 02c0
000000a0: 1bab b14a ded5 0940 442e 159c 5b06 693f
000000b0: d77d 94b2 c323 01c0 f561 47b5 6ed8 0740
000000c0: 1ec5 a1a8 3025 1640 9c09 3ac3 2b3d 0a40
000000d0: ea4e 517a bd09 63bf d387 e408 55f6 0b40
000000e0: c896 2339 28a7 f33f b882 9175 bbf2 1540
000000f0: 114c c1b5 68af 0140 1198 e95e f913 1940
00000100: 6cc3 aa22 e429 c73f 7535 b689 1a49 1240
00000110: 0c9e c347 8092 db3f 1020 d681 a3bf fb3f
00000120: 3932 2885 3342 0940 bae2 7a89 8562 eb3f
00000130: a8d7 373f 0901 f0bf b42a 5a64 7266 1140
00000140: cc07 8dcc 33b5 0140 5d8e eefb 546d c23f
00000150: f5f6 6fd6 e890 e13f 17b4 6ab4 e659 fa3f
00000160: d070 269b 5076 0140 1fb8 f0d9 1667 e73f
00000170: fd4e 2d18 bb4e d43f 7b6e 6d8a e8f1 eb3f
1.535395132573821 -1.0866118113662016 1.5955889205496707 1.034442126925771 1.5915502443070721 3.136863498381677 1.6298163084617512 1.4309126730797994
0.8248676600149896 -0.16477370551018908 -2.648343711210084 3.1405869674964553 0.10799365591117814 -1.5468562712171876 3.251036872246843 3.7896091366893034
-0.0007315651661803414 3.4826577849786307 3.0376493173242807 -2.3109584587598744 3.229427894160279 0.003054789471809179 -2.142463107258418 2.980679908982206
5.536318430780083 3.279868626793542 -0.0023239804018347814 3.4952793783895486 1.2283098442070912 5.487043225294364 2.2106489371885876 6.269505961425254
0.1809659165642431 4.571390296693939 0.43081671722617965 1.7342867919669551 3.1573248293773557 0.8557765660435372 -1.0002529591997504 4.3500457458528
2.2134777050532417 0.1439615469108614 0.5489391506414153 1.646948532822767 2.1827709313493884 0.7313341385504407 0.3173053489783653 0.8732798293744531
