runs/run_6to5/20/weights.npy (npy, 608 bytes, 1 tensors)

array f8 [60]
0	0xbf68e7a4d9ec956e	-0.0030401439429563115
1	0xbfd54af77e30085e	-0.3327006084729244
2	0xbf5cec4ff51c73c0	-0.0017653256258605005
3	0xbff58a08181cb607	-1.346199125469299
4	0xbf3cf76b544ef95a	-0.0004419934305665195
5	0x400f1b48e0bb5753	3.88832259723396
6	0x40091e7ba7411515	3.1398842875229414
7	0x3fd459b4a5a2aa61	0.3179751985104869
8	0x3ff91a20c4e2f498	1.5688789072876599
9	0xbff280b85f98cc9d	-1.1564258322003191
10	0xbf698277f9058f4b	-0.003113970109710628
11	0x3ff966e4b6d567a0	1.5876204626024233
12	0x3fd86268213e665d	0.3810062718053809
13	0xbf99f7d1e13f5f4d	-0.02535942017843178
14	0x40092776d6fa2278	3.144269637592796
15	0x3ff9112b123cdb88	1.5666914665614247
16	0x3fd17d842517cd61	0.2732859003292188
17	0x3ff92b426af0d026	1.573061387764946
18	0x40021aaea136f936	2.2630283923055243
19	0x3f94e80d28aaf300	0.02041645584789631
20	0x4009270743f423db	3.1440568264847406
21	0x3ff90b2afc46f6d5	1.5652265410021091
22	0x3ff933006a770bf4	1.574951568488129
23	0x3f6eb7c0e3cb877e	0.0037497298602468523
24	0x40080eb102318fe6	3.007173554551616
25	0x3ff0eb494cb31ff9	1.0574429508287706
26	0x3f61164bc3236a86	0.002085826848184982
27	0xbfc42c86680c6a14	-0.1576087959336553
28	0x4008e68ce40712cf	3.112573415246835
29	0x3ffe58b97bbd25fd	1.8966612657117132
30	0x4004490c6ff85cd7	2.5356682536763446
31	0x40025714bc91551d	2.29252002066154
32	0x4009235bd189f163	3.142264973661598
33	0x40091c2d78038e02	3.138758599861604
34	0x3ff306f770828480	1.1892008204379465
35	0x3ffbbfa3819e39d4	1.7342867911535125
36	0x4008ea1c0afe2abf	3.1143113001647573
37	0x3fff1716f00b3093	1.9431371094424648
38	0x4005a834db80bc9e	2.7071320675527906
39	0x3ffd0558a9534051	1.8138052572503691
40	0x3ff91d517f70eab9	1.5696578004996538
41	0xbf46408f4c1f0481	-0.0006790828413089229
42	0x3fe6e92c642a03de	0.715963550217676
43	0x3fed17aae1402773	0.9091390990663356
44	0x3fd00b0a7fba3c7b	0.25067388986003153
45	0x3fe76716d947a235	0.731334137320181
46	0x3fd44ebb18675410	0.3173053491894402
47	0x3febf1e88ac026b5	0.8732798299763177
48	0x3ffff3f6d7d0632d	1.997061579726686
49	0x3ff256a5ac8b092c	1.146154092785376
50	0x3ff29b79a4f167dd	1.1629578059278096
51	0x3fe50fdb8f631fb3	0.6581857491046236
52	0x3fead6ebf7a95a85	0.8387355649127392
53	0x40078a6b249be2c1	2.942587171561485
54	0x40004972a5ed21d9	2.035863205241395
55	0x3ffe9e468a8634ca	1.913641491995167
56	0x3fe1346968c8f1e2	0.5376479193287731
57	0x400253304284ea4f	2.290619392091038
58	0x3fe06d508d2b1878	0.5133440739816839
59	0x3ff312d19b8c39c5	1.1920944286426771
