runs/run_4to2/100/weights.npy (npy, 416 bytes, 1 tensors)

array f8 [36]
00000000: b5c0 de95 6d1f f93f 52fd f157 bd21 e9bf
00000010: 3001 64b6 77ee 6d3f acf8 a4db b696 613f
00000020: a931 e5d9 031c 0940 9070 6f43 5ec4 0540
00000030: 20d5 f2c2 af1d 0940 f34d 8c47 bb98 e6bf
00000040: c83f e244 5c23 f93f 13b0 0837 116a 723f
00000050: 57ef d472 59f2 423f 6c5f ea10 f50d f93f
00000060: dcdd 02af aaf1 66bf ca51 1634 d3a5 e7bf
00000070: 4aef e191 43e4 0140 7820 efcb 585f 0940
00000080: 978a 6741 c348 b2bf 29f1 fe51 2094 f63f
00000090: 929e 3f4a ae0c f93f b2b0 4b0d 75b0 0040
000000a0: d59e ad7f ed1e 0940 ecc0 b5df a811 f93f
000000b0: 8697 b8a3 f2ea f13f 586e baee 613e ef3f
000000c0: 9be0 eda4 b428 0940 6c38 aa0a dee2 50bf
000000d0: a4d4 30ce 0719 f93f 8054 6d78 4ef4 e2be
000000e0: 6e87 eac0 ae90 0a40 c009 b217 4870 0440
000000f0: 615c 4808 1923 0940 e275 76bc 1457 0240
00000100: 9ddb 5e1b f0b2 0340 d428 1a7b ac7d 0140
00000110: 5d36 2770 f706 f33f ba4b e881 a3bf fb3f
1.570172868185222 -0.785368606346234 0.003653749287991691 0.0021470614857711148 3.138679220492311 2.7208829182037064 3.1394953947407345 -0.7061439893172391
1.571132916524208 0.004495684858323318 0.0005782067070536451 1.5659075413477366 -0.0028007825531763796 -0.7389923112228243 2.236457004268151 3.1715560848570554
-0.07142277094639336 1.411163635536534 1.5655959034283211 2.086160758850462 3.140101430402732 1.5668114412947558 1.1198603053430545 0.9763650572453555
3.1448758015722666 -0.0010306518912872832 1.5686109594655955 -9.038125211505718e-06 3.320645815999277 2.5548250056465065 3.142137589176443 2.292520019879462
2.4623720300982783 2.1863641373975984 1.1892008191092807 1.7342867922313716
