cirq6+3x11runs/run_6to5/10/weights.npy (npy, 1040 bytes, 1 tensors)

array f8 [114]
00000000: 10d0 c6da 3b15 0840 003e 2f49 2798 f23f
00000010: e0dc 1e85 1882 ed3f dc74 8362 b21c 0e40
00000020: 65a6 57fc 867d c83f 694e fbf8 3c9c f4bf
00000030: 66e9 f034 a103 f73f a3b2 45f8 b3d1 eb3f
00000040: 2ace 3a94 144d ba3f 8ae8 b3e2 f904 dfbf
00000050: f703 e1c1 e0eb 0340 d368 7f29 db14 d93f
00000060: 57fb 3150 362e d33f 23e7 97bd a604 dfbf
00000070: 2c0f 3c09 62c4 fc3f 479f 0f8c b61a fa3f
00000080: ea23 5eeb ff7d b7bf aa63 4d7f f517 0940
00000090: 8e46 8161 03cd e53f 7152 166a 2303 1140
000000a0: 5000 8d99 82ce d93f 5d83 3df5 6549 fa3f
000000b0: 7a06 befe 265d 0940 5ac2 308e 2eef 0640
000000c0: d550 2d09 00e7 f3bf 4b69 39d5 d02d fd3f
000000d0: 7283 8088 3946 ec3f 07d0 94a1 81cb ff3f
000000e0: 9914 14bf 7031 0440 b098 70ba 48a3 e43f
000000f0: 3317 e13a 5296 d83f 7dd6 a270 0926 e73f
00000100: 3e65 ca04 457c fe3f 0082 d4bf 5a3c 5f3f
00000110: 9efc 427d 30cf e43f 9787 c574 06fc 02c0
00000120: db55 3c4a 14ce f13f f14e d1b3 65ce 0440
00000130: ef48 64e4 865c fb3f 6617 164a d090 0340
00000140: f473 6caa f837 f23f ac15 3f84 499f f43f
00000150: 298c 95e5 5a68 fd3f 2669 2f81 90f7 d1bf
00000160: 512a 1ffc 95ed f03f e1a0 b119 d398 0540
00000170: 0eac 6c4c 954f fe3f 12c3 cc09 23e6 0540
00000180: e42a 52fe 8941 d03f 0929 f137 0b64 f83f
00000190: 353d b665 7f5b 0740 1b02 3cb6 39d5 0640
000001a0: 9b76 31df ba1d a53f 5fab 616b 891a fc3f
000001b0: 4608 ae5e e769 c8bf 6445 4117 7cd7 c33f
000001c0: 714e ceef cb94 c83f bc8b 096c 768b e2bf
000001d0: 44ad bedd b78a a6bf 3409 5e05 4613 b63f
000001e0: 8f75 de05 2657 f73f ca76 c82f f7ad f0bf
000001f0: 224f ec07 8fa7 de3f 9c1b fbd6 cf29 efbf
00000200: dca9 5c7b 9e8c e33f 1703 9d33 de45 e2bd
00000210: e870 fd84 7760 f23f 7715 617d 11ab b53f
00000220: e540 400a 4379 b1bf 6107 a26e b643 a4bf
00000230: a081 5f37 ee90 9fbf 08e2 2560 fc4a c6bf
00000240: e319 bd30 5ca0 c6bf dc33 184f 786b d2bd
00000250: f409 a1d9 93bc b8bf 1c3b d4a2 54de 9ebf
00000260: 083b cdac 6423 c4bf 4aaa 96d5 e2fb a33f
00000270: 2fd7 68df a77f c23d fccc 5163 69e8 fa3d
00000280: b9b8 2f35 c25c e03f 9746 a715 84e0 e4bf
00000290: dded c059 be24 acbf e61f 7d07 598d ca3d
000002a0: 8760 dc71 7a5d 08be b24e 2972 8ae6 d1bd
000002b0: e017 63ef 0cd9 ccbf b26e 5ecb baf8 c6bf
000002c0: 8007 b900 41a0 d0bd 81e4 b113 731f 013e
000002d0: 1688 9ffd 30dd f03f 24fa 9b1b b14d fa3d
000002e0: 7d67 e6bc 0696 f63d 480a fdbd 3b87 e4bd
000002f0: af7e 51b5 2eb9 aabf 2ed6 fe1f 49e0 c4bf
00000300: 86f2 cbf3 a731 babd f1ca c271 661d fcbd
00000310: 758a 0da1 487b d33d 2ccc fe27 41bb f43d
00000320: 18bd 70c2 6970 00be 18bd 70c2 6970 00be
00000330: ca5b 8ea7 5f00 ce3d 36c2 0766 ca85 cdbd
00000340: e0d9 637a f5f3 c3bd ba00 99f2 0de2 d73d
00000350: 1159 4ee5 3a6f c33d 09d6 064a adfd e5bd
00000360: db3b 5830 b451 ee3d 7451 1e48 734f d6bd
00000370: c354 7136 59a4 e1bd aeb2 ab3b dbb3 e4bd
00000380: f852 823c edfc a7bd 86e3 852f 3f94 dabd
3.0103680698321185 1.162146840931996 0.9221308326731581 3.7640121170394263 0.1913307888165036 -1.2881440854879662 1.4383861606607637 0.8693485116069336
0.1027386533631264 -0.48467871798460094 2.490174784354618 0.39189795544156175 0.29969556647841017 -0.4846588946817169 1.7979450569845978 1.6315217467435603
-0.09176635261805158 3.1366987176411003 0.6812760261911579 4.253064782726697 0.40322937960809657 1.6429195003222141 3.1704845334759826 2.866788016188633
-1.2438965185620436 1.8236854867050905 0.8835723558478163 1.987184172799063 2.5241408279421873 0.6449321404841353 0.38417487859657057 0.7233931732104818
1.905339258874235 0.001906479475401679 0.6502916761891304 -2.3730591891080155 1.1128123187858054 2.600779919457516 1.7100895806839238 2.4457097805015335
1.1386648804830175 1.2888884702564196 1.8379773109561575 -0.280735136182232 1.0580043648248145 2.699621391995706 1.8944294915515942 2.737371517716732
0.25400018535644464 1.524424761317791 2.919676584838863 2.854113982874208 0.041242446656480435 1.7564787096586867 -0.19073192713773518 0.15501357207771627
0.19204091271659565 -0.5795242414572992 -0.04402708608480535 0.0862315905670002 1.4587764958626825 -1.0424720636869318 0.4789769723295071 -0.97385398853736
0.6109154138005652 -1.3295300434085933e-10 1.1485514826700243 0.08464154540077638 -0.0682565593745071 -0.03957910633563589 -0.030826303605751115 -0.17416338629460903
-0.1767688024503534 -6.70108584712199e-11 -0.09662746489724566 -0.03014499896840582 -0.15733011663038377 0.039031113217181515 3.3648857941478705e-11 3.915608699427264e-10
0.5113230742261045 -0.6524067328375222 -0.054967831093076326 4.829806080777765e-11 -7.091191832704067e-10 -6.512182159872376e-11 -0.22537385643789687 -0.1794656270038693
-6.048500604945567e-11 4.98340514158169e-10 1.0540017993121231 3.8276606503213003e-10 3.286701439654682e-10 -1.493627157669693e-10 -0.052194080003343905 -0.16309465467718226
-2.3823276023165192e-11 -4.091248327627975e-10 7.087356419038054e-11 3.016824914840237e-10 -4.784411797998956e-10 -4.784411797998956e-10 5.457233705252665e-11 -5.37013322298132e-11
-3.6294230900849225e-11 8.688593997869465e-11 3.5351135788862074e-11 -1.6000504134603524e-10 2.2060089186996436e-10 -8.116459069910202e-11 -1.2836234438338094e-10 -1.5063097803398907e-10
-1.0908477151874623e-11 -9.669416298967062e-11
