runs/ee/8/weights(8)(2)_0.npy (npy, 800 bytes, 1 tensors)

array f8 [84]
00000000: 22a6 e923 48df f73f 2cc8 4582 e894 f73f
00000010: 5a6f 95c8 ba26 1240 8a68 88e7 91ab 0840
00000020: d5d7 9b02 1e81 0340 0276 af26 cbee f7bf
00000030: 322c 4c75 6ad0 fa3f 1298 3f86 398e 0940
00000040: 1b62 35fe 025c f8bf 905b 473f 3ff0 0840
00000050: 8ce4 9878 d7e0 0740 5cfc 6fce df6a 0040
00000060: edb0 3cef b6cb fc3f 38b9 5f72 caf1 91bf
00000070: 38ff b746 923b 0940 98b5 6196 5a44 d93f
00000080: f11c 4799 c62b f73f 23e9 fd51 222b 0040
00000090: 3dc5 ca0c 514c f83f ccc0 1292 e333 0040
000000a0: 7138 7d3f ebbd f93f 4c0a 29eb f60d 1540
000000b0: de0e 6594 0f74 0540 8615 81e4 a6f3 0e40
000000c0: 9db3 6e1e bd4b e03f 1c7e 2ec7 e954 e23f
000000d0: 370f 2158 f77f 0b40 bb40 6170 83e0 e3bf
000000e0: 7d86 b454 e4ab ff3f 51a7 3d86 c5e7 eebf
000000f0: 8794 1dc1 7480 f4bf de07 3f77 2b5c fb3f
00000100: faa1 6df9 2c4f f43f 5deb e295 37be f73f
00000110: a993 519c 4a0e d23f d062 c541 304f 0740
00000120: 1838 d5b5 2423 a1bf 76cf 52ff 5a84 f13f
00000130: 72c3 d2c8 e866 fb3f a469 7e5b 86ae 0c40
00000140: 9870 5373 ff21 0840 e733 c097 dee5 9cbf
00000150: a72c f847 8889 0640 86a0 9c29 8532 f53f
00000160: 8852 6cac 19c0 f23f f2f4 3d64 f9af 0e40
00000170: 385d 4e7d c10c f83f 3cea bd6a 7938 0540
00000180: 1bdb eee9 f96c 0540 d934 068b cb23 13c0
00000190: da08 ecde e31b 0340 dca9 c2a7 4fec c03f
000001a0: 52e1 419e 4fbb f53f 5f45 687f 6d85 fc3f
000001b0: 2c0e 4336 4d5e fd3f 2bf7 1317 6f67 0240
000001c0: 470a db83 13d6 0040 c286 6712 53cb f73f
000001d0: c109 4df7 7134 0540 d4fa 589f 7610 d6bf
000001e0: c2aa 0771 0684 f93f c9b3 8265 2a90 1040
000001f0: b954 d3d1 d95f 0040 e07d ee41 a4cf 0a40
00000200: f816 c982 1a97 e53f 1f11 ea93 9409 e9bf
00000210: 0dbf e462 5bc2 f93f dbbe 5267 9a0c bcbf
00000220: 653c 5524 035d f0bf f513 f386 2548 f23f
00000230: f877 5dfa abba ecbf beb0 c981 e30b 0640
00000240: 7f9f 675e f9e8 0840 a5fc b6fb 1d5c fa3f
00000250: 1017 82ad 54f7 0540 5593 9e10 ec0c f8bf
00000260: f2fb a3fe 2b20 b53f 388f 62ef 9d3c fa3f
00000270: 5665 490c a522 dc3f 3fa5 e532 8738 f33f
00000280: feff 99fc 4f0a 0c40 77fb 4c53 b175 0fc0
00000290: f60f 0608 5e81 0b40 8660 2366 f133 ca3f
1.4920121577109815 1.4738545502446057 4.537821897621905 3.0837743843558814 2.4380455211457766 -1.495799208750555 1.6758827764449618 3.1944456566007
-1.5224637918491968 3.117308134427226 2.9847859784754913 2.0521846893239353 1.7997350068281392 -0.017523921233015133 3.1540875935460484 0.3947969883509699
1.4481874453938952 2.0210615544903177 1.518631982773811 2.025336400220203 1.608866928104842 5.26363723218908 2.6816703408565976 3.868970666112264
0.5092454523452151 0.5728653803125243 3.4374834904755533 -0.621156424991589 1.9794658001705152 -0.9657924291507048 -1.281361345632179 1.7100023897223688
1.2693300002375723 1.4839397292077685 0.2821222807454498 2.913666261516802 -0.033471247860333786 1.0948133443425525 1.712624344316478 3.585217203898724
3.016600514396554 -0.0282206325646718 2.817154466878111 1.3248340249502077 1.1718994841841397 3.8359248954208107 1.503114213444702 2.652575334473367
2.6782110477464705 -4.78495614266759 2.3886182227880512 0.13221164409090036 1.3582302267005457 1.7825751282546987 1.8355228538138233 2.3005048563926684
2.104529409524989 1.4871397704049945 2.650607997931019 -0.34475484429632997 1.594732705615272 4.140786729910311 2.046802176725205 3.351387515154542
0.674695258560603 -0.7824194802238117 1.6099504340199389 -0.10956730864085833 -1.0227080744987458 1.1426139136758569 -0.8977870836204138 2.7558050288845086
3.1137568831799736 1.6474895317658504 2.7457669787717194 -1.5031548165508941 0.08252215353785156 1.6397990561462858 0.4396145458209352 1.2013008106390115
3.5050353750702916 -3.9324671275966767 3.4381676318025667 0.2047101734849585
