runs/run_4to2/10/weights.npy (npy, 416 bytes, 1 tensors)

array f8 [36]
0	0x3ffbba2d1582c424	1.7329531517282328
1	0x3ff963864cbb65ce	1.5867980000824562
2	0xbf629d759cea0fce	-0.002272348130022173
3	0x4008f4056a9c85ce	3.1191509560601167
4	0x400917c900ac1cd7	3.136613850834333
5	0x3ff92a25e5c7056b	1.5727900481873245
6	0x40092576595976de	3.1432921390940995
7	0x40093adde8359939	3.1537435666424725
8	0x3ff8e3d941335d31	1.5556271120929746
9	0xbfe52db82beb405a	-0.6618309839050298
10	0xbf7ca801f060ebed	-0.0069961620084155575
11	0x4008b8d76796916e	3.090254601747964
12	0x400509523d044718	2.629551388447805
13	0x40092fb1846a8bc2	3.1482878060355413
14	0x4002065d2b1a3bed	2.2531073920613296
15	0x3ff8f0425590423b	1.5586570112537987
16	0x3ff94e00a2ccd4c5	1.5815435752277136
17	0x40034a52938b0791	2.411290314369531
18	0x4008e21080307990	3.1103830351632453
19	0x3fd4d084e5b0e538	0.32522699766885266
20	0x3ffaa3e7ed7ff237	1.6650161053977521
21	0x3ff4c727351d2556	1.2986213755378535
22	0x3ffb3dffc279b85a	1.7026364895532624
23	0x400086a5dd3caaa0	2.0657460483683536
24	0x3ff8fd6e55c55ef4	1.5618728018216048
25	0x3fe3847952d926d9	0.6099211328630317
26	0xbf9a3a784d77087a	-0.025613670089804398
27	0x3f8f9dad34129d00	0.0154374629513101
28	0xbfda2724189ac952	-0.4086389770774491
29	0x4003bb9451fecef6	2.4665914922605863
30	0xbfd410958f9d847a	-0.3135122206204596
31	0x3ff859659ef3cda9	1.52182542887463
32	0x3ff98a90ac99b9ac	1.596329378338491
33	0x40092250d35ec335	3.1417557252210835
34	0x3ffad30eeeed6f45	1.6765279133896496
35	0x3fee73dbd952b4b5	0.9516429180709084
