cirq5runs/run_7to4/100/weights.npy (npy, 632 bytes, 1 tensors)

array f8 [63]
000000 de d5 19 b3 66 24 f9 3f e5 39 6c b7 8f 57 f9 3f
       1.5713870044831917 1.5838772931052685
000010 84 2f 8b 95 5f 1e f9 3f 40 11 f9 e3 56 b9 01 40
       1.5699153749037302 2.2154977617630323
000020 14 b0 9e 5e 43 21 f9 3f 50 68 a0 b2 ab 2f f9 3f
       1.5706208892906988 1.5741383531190145
000030 84 58 da a1 f7 09 f9 3f 52 04 7f 43 dc 1c f9 3f
       1.5649334261302394 1.5695459972923982
000040 66 94 f8 fb c9 bb f8 3f 25 03 fe 2f 74 ce e0 3f
       1.545846924077773 0.5252018868778562
000050 6e 1f f6 b9 1a 62 de 3f e9 3d 75 e8 14 3c f7 3f
       0.4747378173856224 1.4521683769597706
000060 20 61 94 ea 1e 9b 0c c0 7d aa 23 29 b2 6a be bf
       -3.575742561963253 -0.11881555084588942
000070 a0 fb 61 26 64 73 60 3f 3b ea 02 15 0e e3 f0 bf
       0.0020081478169795136 -1.0554333515889442
000080 17 63 01 fc 84 80 4a bf 3d 42 70 12 40 dd 0a 40
       -0.00080877774599761 3.35803236394011
000090 43 b3 a3 2b bc 1f 09 40 a7 13 af 92 f2 3d cc 3f
       3.1404956254322385 0.22064048921870702
0000a0 73 ba cc a7 cb cc 10 40 9e 53 38 03 e3 23 09 40
       4.199995633955598 3.142522835880711
0000b0 dc 16 53 4e c3 af cb 3f aa 7f 5d bf 55 21 09 40
       0.21630135845605636 3.141276831665853
0000c0 37 d5 28 3b 1d d3 0d 40 f8 8f 51 57 e8 3f 1e 3f
       3.7280830976329997 0.00011539321515524603
0000d0 58 ba 88 f1 8d dc f7 bf 1d 85 6a 8e 86 44 03 40
       -1.491346305363228 2.408459770799381
0000e0 f7 c9 57 2f aa fe ff 3f da dc a1 a6 3a 18 09 40
       1.99967401974993 3.136830617727907
0000f0 d6 20 0c c3 69 91 04 40 f8 66 78 43 07 25 2a 3f
       2.5710025060726407 0.00019946778933004733
000100 fa 84 d9 f3 5c 49 e2 3f 01 6e e2 0d f8 41 f5 3f
       0.5714554560364882 1.3286057035792285
000110 32 65 39 63 a6 31 07 c0 77 a3 0a 1a 44 54 09 40
       -2.899243140400949 3.166145518731749
000120 c4 c5 d4 94 9c b3 0c 40 c3 fe 84 b0 b2 ca 08 40
       3.5877009990151425 3.0989736357294944
000130 e7 78 df e3 b3 47 06 40 fa 50 01 b4 b5 bb 98 3f
       2.785011081940968 0.02415355597652622
000140 94 6d b9 cb 5e fd d2 bf 83 22 82 fc 54 6d c2 3f
       -0.29671449561075147 0.1439615471793055
000150 6d f4 95 b9 4b 36 08 c0 80 1b 0b 42 d0 15 09 40
       -3.02651162136913 3.135651126827213
000160 6f b2 a1 80 d5 dc b6 bf 86 03 b5 d1 2c 02 cb bf
       -0.08930715933247212 -0.2110038780174614
000170 4c d2 03 f8 b4 01 8b bf 60 24 7c 8a e8 f1 eb 3f
       -0.013186849421324663 0.8732798294814863
000180 47 20 ea d7 f6 f3 ff 3f 1d df 7a 28 40 4c ad 3f
       1.997061580101233 0.05722237104549619
000190 08 94 67 92 0f c0 07 40 6f 92 a1 74 54 86 07 40
       2.968779701028783 2.9405907737548698
0001a0 09 73 ab 06 ce 67 09 40 e8 f3 93 24 6b 8a 07 40
       3.175685932261676 2.9425871713306044
0001b0 e0 7e 13 a6 72 49 00 40 f1 72 a0 8a 46 9e fe 3f
       2.0358632063579165 1.9136414923770497
0001c0 41 db c7 28 f7 1f f9 3f 8a 82 d1 42 11 22 fc 3f
       1.5703040688510586 1.7583172426313092
0001d0 4f 98 fb 08 37 88 ef 3f bf af 86 9b d1 12 f3 3f
       0.9853778052754566 1.1920944285620718
0001e0 ee 43 42 3f 93 de 08 40 62 9e d7 2c bf 15 00 40
       3.1086792890641766 2.010618543939743
0001f0 84 6c 46 19 cf fe fb 3f
       1.749709223490556
